Assets/mnist_handwritten_model .onnx (onnx, 189159 bytes, 12 tensors)

StatefulPartitionedCall/sequential_11/dense_27/MatMul/ReadVariableOp:0 f4 [64, 10]
0.13662036 0.1554953 -0.33178294 -0.15163788 -0.21092492 0.10282217 0.13586004 -0.2989695
0.12237957 -0.31037888 0.10607718 -0.09201448 0.08976105 -0.19975103 0.1400306 -0.10493561
0.10266047 -0.306077 -0.11893308 -0.03387111 -0.3281484 -0.29034278 0.040918626 0.041106753
-0.5492933 -0.1910823 -0.2851276 -0.01060133 0.01434781 -0.29798073 0.12364981 -0.1524151
0.20446877 0.16556749 -0.26112956 0.22275163 0.2230571 -0.1968514 0.1828657 -0.084521174
-0.42242828 0.17014009 -0.18684828 0.15103404 -0.04748488 0.06712674 -0.44539014 -0.0006737169
-0.16579466 -0.12693779 0.10092156 -0.03381356 -0.24762069 -0.118196085 0.094594166 -0.25475383
-0.11478808 -0.09867233 0.22161807 0.22368498 -0.044499654 -0.020949075 -0.3691727 -0.20687197
-0.28273147 0.028433258 -0.05694864 -0.15519232 -0.09767626 -0.023223862 0.19741493 -0.14168452
0.19469164 -0.06772836 -0.15394375 -0.03925764 0.14804547 0.09585063 -0.14002974 -0.15014622
-0.14015311 -0.07725426 0.17511483 0.0048440397 -0.09677393 0.16358365 0.2187176 -0.06819645
-0.094562635 -0.331913 -0.17687993 -0.18013515 -0.05024467 0.19481617 -0.004203277 0.20011449
-0.5005707 0.120925486 -0.22134554 0.10680445 0.09498347 0.15984409 0.03475954 -0.32860708
-0.28976572 -0.14544034 -0.27336916 0.18219183 -0.09102457 0.0950001 0.18556242 0.1608739
-0.25121778 -0.325409 0.14686295 -0.020093 0.15872447 0.20322494 -0.08774529 0.16645849
-0.52822345 0.12725058 -0.28351584 0.04663588 -0.0575769 -0.15501183 -0.3895673 -0.03145275
-0.21027084 -0.23255235 0.16653016 0.15974382 -0.264655 -0.13496596 0.14385712 -0.21533544
-0.08429819 -0.18568811 0.14866501 0.13196516 0.10080116 -0.1193355 0.12597375 0.14202555
0.26560134 0.16909122 -0.0045176214 0.10794642 -0.2269621 -0.11550147 0.09074658 0.028617525
-0.18172425 0.0063380087 -0.031891827 0.06166851 -0.13653535 -0.100913264 -0.1946245 -0.02806668
-0.17996481 -0.024244422 -0.041699555 0.051405046 0.22503667 -0.18056697 -0.22600484 -0.055194743
0.20997933 0.24837902 -0.034546528 -0.10826644 0.10544052 0.14511724 -0.13480194 0.09388936
0.1502535 -0.3837981 0.15464747 -0.3744261 -0.20743203 -0.29830292 -0.21219403 0.22322503
-0.21268097 0.21813202 0.18936494 -0.34115484 0.1403032 0.10007663 0.15354511 -0.21348794
0.04770145 -0.22792153 0.1341461 0.064752415 -0.22938994 0.214057 0.086157136 0.016225932
0.039642025 0.05002432 0.08893703 0.016547585 -0.28108793 -0.28968298 -0.3433402 0.090746984
-0.006628673 -0.14691825 -0.03604006 0.06760356 -0.13178992 -0.36510175 0.119458355 0.10445174
0.09656345 -0.10001723 -0.1613559 -0.11351804 -0.11977315 0.23099825 0.20614702 -0.037045833
-0.18311484 -0.29192898 -0.18087906 0.23686388 0.18609516 0.19354323 -0.2915966 -0.07921306
-0.020779027 0.1952879 -0.15028448 -0.083288945 -0.34632027 0.11396063 -0.18041188 0.10995527
-0.10386585 -0.18473665 -0.24281359 -0.13930498 -0.0838889 0.16962998 -0.013431998 0.17857757
0.17173888 0.09950604 -0.12088841 0.07645065 0.1459907 -0.050386313 -0.16706285 -0.015026585
00000000: 35e6 0b3e 293a 1f3e 74df a9be f646 1bbe
00000010: b4fc 57be 6e94 d23d e51e 0b3e 8812 99be
00000020: 24a2 fa3d fbe9 9ebe fe3e d93d 1672 bcbd
00000030: a4d4 b73d 898b 4cbe 2e64 0f3e 7be8 d6bd
00000040: a73f d23d 20b6 9cbe 3093 f3bd 6fbc 0abd
00000050: 1103 a8be cfa7 94be 4a9a 273d 8e5f 283d
00000060: 7c9e 0cbf 14ab 43be 3ffc 91be 33b1 2dbc
00000070: 1413 6b3c ee90 98be 1d3c fd3d b412 1cbe
00000080: 4360 513e 868a 293e c6b2 85be 0119 643e
00000090: 1569 643e 6a93 49be 2541 3b3e 7019 adbd
000000a0: 8548 d8be 3439 2e3e 2855 3fbe aba8 1a3e
000000b0: 817f 42bd bf79 893d 2d0a e4be 609c 30ba
000000c0: 13c6 29be fbfb 01be f6af ce3d 1680 0abd
000000d0: 4790 7dbe ca10 f2bd 96ba c13d 186f 82be
000000e0: 0316 ebbd b814 cabd d9ef 623e ad0d 653e
000000f0: 4545 36bd 659d abbc 3404 bdbe 3fd6 53be
00000100: 2ec2 90be ddec e83c fa42 69bd bcea 1ebe
00000110: 7e0a c8bd f83f bebc 2427 4a3e bf15 11be
00000120: 3f5d 473e 2bb5 8abd 6ea3 1dbe 9ecc 20bd
00000130: 3b99 173e 564d c43d f563 0fbe eebf 19be
00000140: 4c84 0fbe 7b37 9ebd 4d51 333e c0ba 9e3b
00000150: 6931 c6bd 7982 273e 82f7 5f3e 95aa 8bbd
00000160: 0eaa c1bd 80f0 a9be 0320 35be 5975 38be
00000170: 5bcd 4dbd e47d 473e a5bb 89bb d0ea 4c3e
00000180: 6725 00bf c8a7 f73d 68a8 62be 4bbc da3d
00000190: b286 c23d 2bae 233e 0560 0e3d 303f a8be
000001a0: 2c5c 94be 50ee 14be 0bf7 8bbe 7f90 3a3e
000001b0: 176b babd 6a8f c23d 1304 3e3e 21bc 243e
000001c0: 9e9f 80be 029c a6be 3e63 163e 139a a4bc
000001d0: ab88 223e 331a 503e cdb3 b3bd 1874 2a3e
000001e0: a739 07bf fa4d 023e fd28 91be 4405 3f3d
000001f0: c1d5 6bbd 6cbb 1ebe 5d75 c7be 99d4 00bd
00000200: 3d51 57be 3422 6ebe e286 2a3e e293 233e
00000210: dc80 87be 8434 0abe 484f 133e e580 5cbe
00000220: 88a4 acbd 0625 3ebe a43b 183e e021 073e
00000230: d770 ce3d 2c66 f4bd 43ff 003e 256f 113e
00000240: e6fc 873e 4026 2d3e 8e08 94bb 0313 dd3d
00000250: c168 68be 098c ecbd 58d9 b93d 4d6f ea3c
00000260: ec15 3abe 12af cf3b 01a1 02bd 1f98 7c3d
00000270: eccf 0bbe 9dab cebd a54b 47be 18ec e5bc
00000280: b248 38be 3d9c c6bc 27cd 2abd 198e 523d
00000290: 0370 663e 8ce6 38be d06d 67be e213 62bd
000002a0: d204 573e 1257 7e3e a980 0dbd ccba ddbd
000002b0: 33f1 d73d 9d99 143e 8509 0abe 1149 c03d
000002c0: 0edc 193e 2f81 c4be e85b 1e3e c7b4 bfbe
000002d0: 1069 54be 29bb 98be 6449 59be 1a95 643e
000002e0: 0ac9 59be 005e 5f3e e2e8 413e d9ab aebe
000002f0: a4ab 0f3e faf4 cc3d ee3a 1d3e 959c 5abe
00000300: 9862 433d 4364 69be 985d 093e ea9c 843d
00000310: 32e5 6abe c231 5b3e 2773 b03d 3fec 843c
00000320: ad5f 223d 4de6 4c3d 9e24 b63d cd8e 873c
00000330: c2ea 8fbe 5451 94be 49ca afbe 8ed9 b93d
00000340: 5735 d9bb bd71 16be be9e 13bd bc73 8a3d
00000350: f0f3 06be 9eee babe 95a6 f43d cbea d53d
00000360: 0fc3 c53d d5d5 ccbd 7b3a 25be 257c e8bd
00000370: a04b f5bd ce8a 6c3e 3418 533e 5fbd 17bd
00000380: 7582 3bbe b777 95be 5c38 39be 728c 723e
00000390: bb8f 3e3e 3230 463e 264c 95be 753a a2bd
000003a0: c738 aabc 8df9 473e 2de4 19be 6593 aabd
000003b0: e450 b1be 3164 e93d e4bd 38be 3b30 e13d
000003c0: 9eb7 d4bd 9b2b 3dbe 20a4 78be f7a5 0ebe
000003d0: f2cd abbd 7bb3 2d3e e211 5cbc 0add 363e
000003e0: 51dc 2f3e d3c9 cb3d 5894 f7bd 2992 9c3d
000003f0: 967e 153e e161 4ebd 8612 2bbe 1132 76bc

StatefulPartitionedCall/sequential_11/dense_27/BiasAdd/ReadVariableOp:0 f4 [10]
0.12671413 0.11398194 -0.010752406 -0.12481083 -0.1069379 -0.025023777 -0.18815415 0.05752417
0.089107566 0.08201801
00000000: 59c1 013e 5d6f e93d dc2a 30bc d29c ffbd
00000010: 4202 dbbd aafe ccbc 7bab 40be 779e 6b3d
00000020: 077e b63d 0ff9 a73d

StatefulPartitionedCall/sequential_11/dense_26/MatMul/ReadVariableOp:0 f4 [128, 64]
-0.05592319 -0.089053355 -0.04170482 -0.041632954 -0.25092155 0.10780839 -0.10253126 -0.06880672
-0.3370612 -0.03785714 0.30310488 -0.07547055 -0.1465756 -0.1150725 0.04762451 -0.31155008
0.16751876 -0.15840435 0.07511863 0.107499614 0.048416983 -0.15013093 0.18862231 -0.0332601
0.20848995 0.009838228 -0.027792731 -0.02287671 0.12897742 0.058429427 -0.11344664 0.14421785
0.033383213 -0.11728044 -0.16709383 -0.023411062 -0.113604225 -0.1070508 -0.059987664 -0.12138955
-0.17674729 0.039714612 -0.25571227 -0.067694075 -0.120139375 0.039529134 -0.024391988 -0.046838004
0.06822769 0.11998445 0.02743856 -0.004056421 -0.102630995 0.05405356 -0.07845408 -0.23529726
-0.008613485 -0.034763888 -0.04494057 0.037355796 0.21896833 0.121813506 -0.19436617 -0.19062537
-0.059933424 0.2432848 -0.22649613 0.060572427 -0.026892504 -0.053658072 -0.1065257 0.2737666
0.17368492 -0.095478594 -0.18946701 0.11600848 -0.06874354 -0.10759459 0.22770411 -0.06426903
-0.12736702 0.0884149 -0.19518407 0.15718035 -0.09655327 0.04994319 -0.28837278 -0.17250301
-0.14079946 0.10870144 0.23897195 -0.2388396 -0.044234358 0.019724542 0.096718 0.004188596
-0.039721187 -0.03190919 0.08999128 -0.01201389 0.26930752 0.12090074 -0.09458233 -0.012823073
0.036194086 0.04310131 0.08056243 0.016833493 0.15174368 0.059948925 -0.11471748 0.10058765
0.08380779 0.008105919 0.08039374 0.19499347 -0.21869284 -0.29450142 -0.18608037 -0.08142569
0.06505337 0.10315725 0.06347459 0.07482723 0.017054869 -0.011190071 0.05183679 0.3096986
0.19134222 0.14361683 0.12124285 -0.06496332 -0.24699266 -0.04631205 0.039015267 0.04301245
0.04633153 -0.3328089 -0.00024246021 0.040725578 0.08307606 0.0764011 -0.2868368 -0.16533025
-0.13106124 0.078335516 -0.0827102 -0.20774476 0.049206868 0.2016914 0.13278882 -0.4744723
-0.12062483 0.16504782 0.046702355 -0.27821565 -0.17413653 0.06838797 0.12797539 -0.296217
0.046256732 -0.16748789 -0.08445163 -0.3054804 0.11897919 -0.12354956 0.08344598 0.13805622
-0.25376225 -0.10742279 -0.11222919 -0.048303537 -0.16511507 0.13720581 -0.06221103 -0.26427892
0.17996912 -0.022747759 -0.23520379 0.05093469 -0.39617443 0.12243785 -0.13425292 -0.17427547
-0.24400026 0.17578556 0.0038296361 -0.3203929 0.08175603 -0.08752457 0.07972176 -0.06619174
-0.11975888 -0.21764052 0.087651424 -0.12493105 -0.035643604 -0.20496468 -0.015476133 0.1975961
-0.13646545 -0.13573368 0.17910106 -0.19058897 0.0387789 -0.29828712 -0.3238785 0.02117326
-0.2692961 0.12321979 -0.10281854 -0.08389555 0.22046423 0.12466941 0.17079036 -0.056103192
-0.05769248 0.04073026 0.028901838 0.15524945 -4.9456612e-05 0.17988043 0.2028972 0.1592944
-0.27850896 0.22551756 0.010023615 -0.3145267 0.16587654 -0.030187309 -0.013542402 0.08547139
0.02928099 -0.09144902 -0.11353931 0.10757642 -0.16018903 0.034981836 -0.3147838 -0.1844636
0.0152731985 -0.27620026 0.058047675 0.041972768 -0.08709483 -0.02660308 -0.03666597 -0.099121734
-0.004405554 0.012394996 -0.1869932 0.027053412 -0.21531075 -0.06056883 0.26569417 0.08033023
00000000: b70f 65bd 9b61 b6bd acd2 2abd 5187 2abd
00000010: ca78 80be a5ca dc3d e9fb d1bd 8aea 8cbd
00000020: 4993 acbe 1710 1bbd 9030 9b3e 4e90 9abd
00000030: ea17 16be 22ab ebbd eb11 433d 7e83 9fbe
00000040: 0a8a 2b3e c034 22be ccd7 993d c228 dc3d
00000050: e350 463d ecbb 19be 3526 413e be3b 08bd
00000060: 647e 553e 8530 213c 95ad e3bc f067 bbbc
00000070: a812 043e b253 6f3d b656 e8bd d8ad 133e
00000080: d6bc 083d ba30 f0bd a51a 2bbe 8ec8 bfbc
00000090: 55a9 e8bd 733d dbbd a0b5 75bd 169b f8bd
000000a0: 3efd 34be caab 223d b8ec 82be 31a3 8abd
000000b0: a20b f6bd 4de9 213d b5d1 c7bc 35d9 3fbd
000000c0: f6ba 8b3d 68ba f53d d5c6 e03c baeb 84bb
000000d0: 3330 d2bd 4467 5d3d 88ac a0bd c4f1 70be
000000e0: 931f 0dbc 9464 0ebd 9a13 38bd 6402 193d
000000f0: 3c39 603e 5c79 f93d ed07 47be 4c33 43be
00000100: c07c 75bd a71f 793e 9aee 67be cb1a 783d
00000110: ab4d dcbc 91c8 5bbd 252a dabd 232b 8c3e
00000120: 76da 313e 488a c3bd a403 42be db95 ed3d
00000130: 6ac9 8cbd 8d5a dcbd 442b 693e 7b9f 83bd
00000140: 806c 02be df12 b53d 55de 47be e3f3 203e
00000150: b9bd c5bd 3b91 4c3d 99a5 93be a1a4 30be
00000160: bc2d 10be dc9e de3d 10b5 743e 5e92 74be
00000170: 162f 35bd 5d95 a13c 1614 c63d 7d40 893b
00000180: afb2 22bd 36b3 02bd 594d b83d e8d5 44bc
00000190: ade2 893e cf9a f73d 61b4 c1bd de17 52bc
000001a0: 4040 143d 008b 303d eafd a43d 65e6 893c
000001b0: b262 1b3e 018d 753d 00f1 eabd e600 ce3d
000001c0: 6ba3 ab3d b0ce 043c 79a5 a43d 5eac 473e
000001d0: 04f1 5fbe e4c8 96be da8b 3ebe 83c2 a6bd
000001e0: b43a 853d 1c44 d33d f7fe 813d 053f 993d
000001f0: a7b6 8b3c 8f56 37bc d052 543d d190 9e3e
00000200: 37ef 433e 4a10 133e 2c4e f83d 7d0b 85bd
00000210: a5eb 7cbe b4b1 3dbd 79ce 1f3d d32d 303d
00000220: 21c6 3d3d ee65 aabe eb3c 7eb9 ddcf 263d
00000230: c823 aa3d 2e78 9c3d 46dc 92be 554c 29be
00000240: eb34 06be 5f6e a03d f763 a9bd 0bbb 54be
00000250: 248d 493d 3188 4e3e cbf9 073e 09ee f2be
00000260: 270a f7bd 4c02 293e f84a 3f3d 4872 8ebe
00000270: d950 32be fe0e 8c3d fb0b 033e c1a9 97be
00000280: b377 3d3d f281 2bbe faf4 acbd ed67 9cbe
00000290: 5dab f33d 8d07 fdbd bae5 aa3d 9c5e 0d3e
000002a0: 20ed 81be 7b00 dcbd 6bd8 e5bd eed9 45bd
000002b0: ed13 29be ae7f 0c3e fed0 7ebd 914f 87be
000002c0: d349 383e 8259 babc 43d9 70be e5a0 503d
000002d0: 60d7 cabe b2c0 fa3d 9979 09be 4575 32be
000002e0: 34db 79be 2101 343e a2fa 7a3b 8a0a a4be
000002f0: b56f a73d 1540 b3bd 2945 a33d 898f 87bd
00000300: 2544 f5bd 28dd 5ebe 9782 b33d dadb ffbd
00000310: 07ff 11bd 43e2 51be 9b8f 7dbc a256 4a3e
00000320: 99bd 0bbe c5fd 0abe 4566 373e c129 43be
00000330: a0d6 1e3d 17b9 98be 67d3 a5be 8b73 ad3c
00000340: 2ee1 89be a85a fc3d 8792 d2bd 6ed1 abbd
00000350: 60c1 613e ad52 ff3d abe3 2e3e 76cc 65bd
00000360: f34e 6cbd c6d4 263d 8cc3 ec3c b6f9 1e3e
00000370: a26f 4fb8 9332 383e 49c4 4f3e 121e 233e
00000380: ba98 8ebe 13ee 663e 173a 243c a509 a1be
00000390: 8adb 293e 604b f7bc f3e0 5dbc a00b af3d
000003a0: b0de ef3c a049 bbbd 4c87 e8bd 0751 dc3d
000003b0: 9808 24be 1d49 0f3d 582b a1be 07e4 3cbe
000003c0: 703c 7a3c 1f6a 8dbe 66c3 6d3d a3eb 2b3d
000003d0: c65e b2bd b4ee d9bc 0e2f 16bd 5600 cbbd
000003e0: 775c 90bb 6214 4b3c 257b 3fbe 1e9f dd3c
000003f0: 6c7a 5cbe 0617 78bd 1109 883e 2d84 a43d

StatefulPartitionedCall/sequential_11/dense_26/BiasAdd/ReadVariableOp:0 f4 [64]
-0.011540687 0.027709767 0.056334082 0.07497574 0.061995983 0.13966599 0.0123893125 -0.04757694
-0.10072872 0.049733516 0.040881675 -0.008308004 0.12957312 0.092972286 0.026213948 0.08212226
0.088421024 0.00041187645 -0.048074424 0.1047157 0.10475299 -0.06676622 0.117100745 0.12974651
-0.01242581 -0.08147959 0.018817231 -0.01566205 0.19498597 0.051645286 0.07452013 0.1670246
0.12531641 0.09494541 0.08922115 0.03760383 0.11330956 -0.006073224 -0.019760687 0.08848637
0.11019847 0.08893208 -0.09474808 0.05788009 0.011104891 0.06920379 0.08741717 0.012999377
0.10789017 0.06679554 0.079152256 0.09201959 0.050442863 0.07156213 0.07326206 -0.04443347
0.045820057 -0.017312918 0.03401777 0.015614746 -0.0049320576 0.116801456 0.021311235 0.11660012
00000000: 2615 3dbc 98ff e23c 91be 663d e18c 993d
00000010: 80ef 7d3d 9a04 0f3e 8bfc 4a3c 0ae0 42bd
00000020: dc4a cebd 5fb5 4b3d 8b73 273d 4b1e 08bc
00000030: d1ae 043e 4168 be3d a2be d63c b72f a83d
00000040: 1516 b53d 1ff1 d739 b0e9 44bd 2f75 d63d
00000050: bc88 d63d babc 88bd 84d2 ef3d 45dc 043e
00000060: a095 4bbc c5de a6bd 9826 9a3c b34d 80bc
00000070: 67aa 473e 028a 533d 039e 983d 7f08 2b3e
00000080: f252 003e bd72 c23d 94b9 b63d 7906 1a3d
00000090: d80e e83d e501 c7bb 2ae1 a1bc 5838 b53d
000000a0: bcaf e13d 0622 b63d 480b c2bd ac13 6d3d
000000b0: 4af1 353c b7ba 8d3d c607 b33d 57fb 543c
000000c0: 85f5 dc3d 1acc 883d 941a a23d c474 bc3d
000000d0: 2d9d 4e3d 2a8f 923d 6b0a 963d dfff 35bd
000000e0: d0ad 3b3d d2d3 8dbc 3856 0b3d fed4 7f3c
000000f0: 199d a1bb 9a35 ef3d e694 ae3c 0bcc ee3d

StatefulPartitionedCall/sequential_11/dense_25/MatMul/ReadVariableOp:0 f4 [256, 128]
0.10976606 -0.34680766 -0.04485334 -0.053081322 -0.014322462 0.08655133 0.17269887 0.045627534
-0.39929834 -0.23094465 -0.10336134 -0.03162715 -0.14881355 -0.11468088 -0.08136713 0.1252687
-0.19649287 -0.16853324 0.070773505 0.019581383 -0.06949001 -0.48286703 0.08774916 -0.064100236
-0.036762226 -0.09900456 0.15146686 0.04194389 -0.5411542 0.17792857 -0.035257846 0.052664414
-0.0595722 0.111999884 0.117418475 -0.09796945 0.104093805 0.20050651 0.17354041 -0.008575839
-0.14541635 -0.002558229 0.13843344 0.008944293 -0.20811875 -0.18776855 0.0830123 -0.06618042
-0.027607542 0.19940478 -0.037725512 -0.5156356 0.19142166 -0.053996872 -0.1645611 0.027662516
-0.17116885 -0.08246225 -0.08222233 0.0015478078 -0.03853907 -0.29656288 0.046342425 -0.016886504
-0.09310288 0.058316447 -0.2220651 0.17887726 0.08417258 -0.14568678 -0.26028836 0.14006248
0.24232815 0.06565127 -0.20748694 -0.44599628 -0.020397628 0.1403121 -0.19980481 0.14854725
-0.009210721 -0.006000287 0.08209053 -0.23058073 -0.09122168 -0.017667912 0.010198471 0.07226353
-0.08903646 -0.16322033 0.09879592 0.23128554 0.056473605 -0.11384691 0.12241296 -0.08681857
0.10910566 0.010440834 0.21046585 -0.11001584 -0.031756602 -0.1840413 -0.041272447 -0.18629801
-0.017511874 0.12925553 -0.274554 -0.15467557 -0.11593886 -0.024196602 0.0378386 -0.17998663
0.19230235 -0.08674987 0.27353233 0.058244552 -0.380777 0.17786907 -0.0044127447 -0.09993022
-0.057914272 0.10273252 -0.20588514 0.046398807 0.030970305 -0.0077081486 0.13190532 -0.012289095
-0.24946004 0.08190788 -0.3004874 -0.05405399 -0.1374079 -0.04453708 -0.02931886 0.17761269
-0.061895173 -0.032170773 0.012864074 -0.04982692 -0.031239215 0.107657984 -0.03364739 0.021108873
0.03470541 0.040168963 -0.1464691 -0.18154958 0.03299248 0.025925163 -0.040284596 0.1717382
0.044257227 -0.20520073 -0.016412405 0.10853611 -0.045969766 0.0057004387 0.2111709 0.117592834
-0.055004478 -0.102657504 -0.2373495 0.14153288 -0.13703881 -0.11462854 0.25851873 0.06701633
0.20319761 0.074464075 -0.016732857 0.050510198 0.383131 -0.23319127 -0.004813418 -0.12302649
0.02770155 -0.017624924 0.052995116 0.16890383 -0.14818059 -0.27232796 -0.03447423 0.062920265
-0.22375818 -0.013212154 0.09477849 0.06439451 0.16980764 0.04519388 0.091100216 0.24611364
0.088253416 -0.0088009825 0.08413407 0.031331915 -0.2757111 0.046212085 0.1884916 -0.09150815
0.09968019 -0.07494166 0.08729779 0.30250072 0.10628277 -0.24575788 0.19730705 -0.20340754
-0.008311346 -0.102153376 0.15163961 0.04039587 0.21507114 0.15319672 -0.09204172 0.059696402
0.1470194 0.14798847 -0.2377593 -0.23197173 -0.09977353 0.13839002 -0.24686415 0.07410423
0.10091739 -0.03325741 -0.08669219 0.1980749 0.025797868 -0.09288669 0.19625407 0.14566483
-0.11212007 0.18955764 0.076583445 -0.056492798 0.101899445 -0.11960614 0.05010037 -0.016647013
0.1462925 -0.041478574 0.057202883 0.07283044 0.050737455 0.03948619 0.16917942 -0.2096994
-0.10190348 -0.15170093 0.11508408 0.11242494 0.013652572 -0.2381187 -0.13932498 -0.021063082
00000000: 07cd e03d c690 b1be 23b8 37bd cd6b 59bd
00000010: c2a8 6abc d341 b13d f9d7 303e f0e3 3a3d
00000020: d570 ccbe c17c 6cbe 1caf d3bd 788b 01bd
00000030: 9462 18be cfdd eabd cfa3 a6bd 7046 003e
00000040: 6d35 49be fa93 2cbe b3f1 903d 2369 a03c
00000050: c750 8ebd 593a f7be d5b5 b33d fc46 83bd
00000060: fd93 16bd e7c2 cabd 211a 1b3e 5bcd 2b3d
00000070: 1589 0abf e832 363e 886a 10bd a4b6 573d
00000080: fb01 74bd 3260 e53d 1979 f03d 35a4 c8bd
00000090: 222f d53d 9451 4d3e 94b4 313e ad81 0cbc
000000a0: 06e8 14be f6a7 27bb 7fc1 0d3e 158b 123c
000000b0: 151d 55be 6646 40be 5a02 aa3d 9a89 87bd
000000c0: 3629 e2bc c430 4c3e 1186 1abd b200 04bf
000000d0: 0a04 443e d32b 5dbd b482 28be 809c e23c
000000e0: e346 2fbe f8e1 a8bd 2e64 a8bd d0df ca3a
000000f0: 25db 1dbd 17d7 97be 8ed1 3d3d 9155 8abc
00000100: b9ac bebd 3add 6e3d 0965 63be 9a2b 373e
00000110: ac62 ac3d ea2e 15be 8444 85be 8a6c 0f3e
00000120: df24 783e 2c74 863d 7577 54be a059 e4be
00000130: ed18 a7bc faad 0f3e a299 4cbe c51c 183e
00000140: 90e8 16bc 0e9e c4bb 141f a83d 5b1d 6cbe
00000150: 6fd2 babd 4cbc 90bc 7d17 273c e7fe 933d
00000160: bf58 b6bd 3b23 27be 8455 ca3d 1ed6 6c3e
00000170: de50 673d 9228 e9bd a5b3 fa3d efcd b1bd
00000180: ca72 df3d 0810 2b3c 5c84 573e fc4f e1bd
00000190: 3613 02bd 5375 3cbe 4c0d 29bd e8c4 3ebe
000001a0: 1075 8fbc 905b 043e 5892 8cbe 4663 1ebe
000001b0: 5a71 edbd f437 c6bc a6fc 1a3d 6a4e 38be
000001c0: e8ea 443e eaa9 b1bd 6e0c 8c3e d791 6e3d
000001d0: 34f5 c2be 4f23 363e c998 90bb 37a8 ccbd
000001e0: 8437 6dbd 6d65 d23d 8ed3 52be ad0c 3e3d
000001f0: 70b5 fd3c a394 fcbb 3012 073e 3358 49bc
00000200: 7472 7fbe 52bf a73d 7cd9 99be b767 5dbd
00000210: a8b4 0cbe 836c 36bd 1b2e f0bc 1ae0 353e
00000220: cb85 7dbd 80c5 03bd d6c3 523c 5017 4cbd
00000230: 62e9 ffbc ca7b dc3d d8d1 09bd 84ec ac3c
00000240: 4327 0e3d 3688 243d fffb 15be 22e8 39be
00000250: 1f23 073d 0261 d43c 7601 25bd 24dc 2f3e
00000260: 1147 353d 2420 52be 4f73 86bc 2e48 de3d
00000270: cb4a 3cbd bfca ba3b 2f3d 583e 83d4 f03d
00000280: 604c 61bd 193e d2bd bf0b 73be ffed 103e
00000290: e753 0cbe 5ec2 eabd 915c 843e dc3f 893d
000002a0: 0913 503e 9f80 983d 5813 89bc c8e3 4e3d
000002b0: bf29 c43e b1c9 6ebe e0b9 9dbb 50f5 fbbd
000002c0: 5cee e23c 2562 90bc 6811 593d 20f5 2c3e
000002d0: a7bc 17be 926e 8bbe da34 0dbd 57dc 803d
000002e0: dd20 65be ca77 58bc 3a1b c23d 45e1 833d
000002f0: 0ee2 2d3e 381d 393d c092 ba3d 3705 7c3e
00000300: 35be b43d ff31 10bc 7c4e ac3d e555 003d
00000310: 012a 8dbe e248 3d3d f103 413e a068 bbbd
00000320: 2125 cc3d 037b 99bd 2fc9 b23d 60e1 9a3e
00000330: c8aa d93d f4a7 7bbe dc0a 4a3e 114a 50be
00000340: 502c 08bc ca35 d1bd 6a47 1b3e 2476 253d
00000350: 9c3b 5c3e 9adf 1c3e 5f80 bcbd 3784 743d
00000360: 418c 163e 4a8a 173e 2d77 73be ff89 6dbe
00000370: 1156 ccbd 1db6 0d3e f5c9 7cbe f5c3 973d
00000380: c7ad ce3d ec38 08bd ad8b b1bd 26d4 4a3e
00000390: 0d56 d33c 603b bebd d4f6 483e 2929 153e
000003a0: 359f e5bd 661b 423e c8d7 9c3d fe64 67bd
000003b0: a8b0 d03d 10f4 f4bd 0c36 4d3d 515f 88bc
000003c0: b3cd 153e 70e5 29bd 924d 6a3d 2028 953d
000003d0: 14d2 4f3d 45bc 213d 5f3d 2d3e 71bb 56be
000003e0: c6b2 d0bd 7d57 1bbe 34b1 eb3d 0c3f e63d
000003f0: 0aaf 5f3c 63d5 73be 35ab 0ebe 7c8c acbc

StatefulPartitionedCall/sequential_11/dense_25/BiasAdd/ReadVariableOp:0 f4 [128]
-0.1762777 -0.2815651 -0.122460954 -0.22342663 -0.16668177 -0.1517912 -0.27120999 -0.28177175
-0.25772947 -0.17942041 -0.1861317 -0.31085423 -0.20623834 -0.17483348 -0.13001966 -0.27926534
-0.2781239 -0.18631719 -0.14517836 -0.25222555 -0.21720849 -0.20680661 -0.1204265 -0.31149405
-0.12718219 -0.1937199 -0.18883674 -0.1383271 -0.21594577 -0.28501374 -0.24814235 -0.21891384
-0.14371328 -0.22005646 -0.27036378 -0.25644848 -0.34172368 -0.17774515 -0.2358848 -0.22156216
-0.24795225 -0.23268561 -0.1990758 -0.2072582 -0.18778364 -0.106076635 -0.18181258 -0.2592454
-0.23665048 -0.22497189 -0.16762528 -0.26999885 -0.2542376 -0.10460031 -0.23739833 -0.08596499
-0.25029877 -0.19842781 -0.27032673 -0.281052 -0.2608641 -0.27420697 -0.15777677 -0.2779468
-0.3113786 -0.17600039 -0.27953285 -0.2430424 -0.21916017 -0.26625955 -0.2311614 -0.19982997
-0.33162448 -0.15395336 -0.19696178 -0.31490713 -0.27245677 -0.1714847 -0.18119165 -0.06594836
-0.27760866 -0.16952841 -0.1352807 -0.07449273 -0.1596944 -0.14445277 -0.23627794 -0.24706985
-0.26421475 -0.19511896 -0.170146 -0.1969434 -0.23671429 -0.35455012 -0.34218755 -0.2765578
-0.25660858 -0.19005479 -0.23586679 -0.10937799 -0.20578165 -0.09454097 -0.09187927 -0.2319845
-0.23648483 -0.1968849 -0.16921909 -0.17772576 -0.2341875 -0.19626923 -0.20827895 -0.17737307
-0.19687438 -0.255761 -0.31854528 -0.20686847 -0.21240507 -0.2589784 -0.1820271 -0.23303849
-0.3637273 -0.108627744 -0.19543977 -0.1831191 -0.23952906 -0.2795324 -0.2145484 -0.2509807
00000000: 2482 34be 4d29 90be cfcc fabd f3c9 64be
00000010: a0ae 2abe 276f 1bbe 09dc 8abe 6344 90be
00000020: 1ef5 83be fcb9 37be 4f99 3ebe 4928 9fbe
00000030: 2530 53be 8c07 33be e023 05be defb 8ebe
00000040: 4166 8ebe efc9 3ebe a3a9 14be b523 81be
00000050: e76b 5ebe 1dc5 53be 2ba2 f6bd 267c 9fbe
00000060: 0c3c 02be 825e 46be 6b5e 41be 9fa5 0dbe
00000070: e320 5dbe 52ed 91be 0719 7ebe f32a 60be
00000080: 9329 13be 7b56 61be 1f6d 8abe 374d 83be
00000090: 68f6 aebe d302 36be c98b 71be 31e1 62be
000000a0: 32e7 7dbe 2345 6ebe 87da 4bbe 7e3b 54be
000000b0: 5b4a 40be b53e d9bd 142d 3abe d0bb 84be
000000c0: 8154 72be 085f 66be f6a5 2bbe 4a3d 8abe
000000d0: 6e2b 82be b038 d6bd 8c18 73be 6a0e b0bd
000000e0: 2927 80be a930 4bbe 4468 8abe 0ce6 8fbe
000000f0: fb8f 85be db64 8cbe 3c90 21be 0b4f 8ebe
00000100: 046d 9fbe 7239 34be ee1e 8fbe 1be0 78be
00000110: 866b 60be 2c53 88be 93b5 6cbe 3aa0 4cbe
00000120: afca a9be f3a5 1dbe 59b0 49be 823b a1be
00000130: 747f 8bbe af99 2fbe 4e8a 39be ef0f 87bd
00000140: b922 8ebe db98 2dbe 0687 0abe a58f 98bd
00000150: ee86 23be 6deb 13be d8f2 71be e1ff 7cbe
00000160: 2847 87be 44cd 47be c13a 2ebe 88ab 49be
00000170: 3b65 72be 9887 b5be 3533 afbe fc98 8dbe
00000180: 3362 83be b99d 42be 1087 71be 9101 e0bd
00000190: 6db8 52be b29e c1bd 332b bcbd 588d 6dbe
000001a0: 1429 72be 329c 49be c547 2dbe befd 35be
000001b0: d9ce 6fbe cdfa 48be 1447 55be 49a1 35be
000001c0: 7099 49be 1bf3 82be 5e18 a3be 54d5 53be
000001d0: b780 59be d198 84be 5065 3abe a4a1 6ebe
000001e0: 773a babe 3978 debd 5d21 48be 9383 3bbe
000001f0: 1b47 75be df1e 8fbe 93b2 5bbe 8b80 80be

StatefulPartitionedCall/sequential_11/conv2d_8/Conv2D/ReadVariableOp:0 f4 [16, 8, 5, 5]
-0.15308243 0.006478648 0.015774276 0.056480438 -0.015412739 -0.09598347 -0.049770888 -0.0651528
-0.0917328 -0.07721374 -0.20275158 0.013358604 0.040780142 -0.042035885 0.04883063 0.3401608
0.15367816 0.08543619 -0.089823924 -0.01034236 -0.019942079 -0.13127059 -0.08124187 -0.16353457
-0.37030065 -0.06515587 0.25811908 0.1404723 0.26346594 -0.19869892 0.14982142 0.13446951
0.10345414 -0.060503 0.21118544 -0.113486074 -0.08966223 0.28047472 0.15872625 0.056313865
0.11853236 0.21743445 0.07313724 0.07615597 -0.040417247 0.020501344 0.14012013 0.15995799
-0.0763274 -0.21958926 0.024768379 -0.1551774 0.022651378 0.004707578 -0.15344085 -0.079277076
0.13056858 0.11643418 -0.06907924 0.06395998 -0.04874421 -0.15243801 0.05773855 0.35684824
0.3242016 0.018753316 0.23641318 0.28623527 0.13738005 0.01508194 0.005116272 0.03238718
-0.18840896 -0.10520045 -0.060941204 0.04217461 0.029545048 0.031921726 0.21370803 0.18691634
-0.13710228 -0.03976947 0.34857312 -0.018011238 -0.004873682 0.0744102 -0.17847984 0.034070462
-0.020346042 -0.06756713 0.29564768 0.39415637 0.05684886 0.14302649 -0.17635979 0.0019204307
0.002878773 -0.20375086 -0.09767298 0.054524772 0.10142646 -0.13447952 0.07814723 -0.052862883
0.12790269 -0.075652234 -0.0811151 -0.21414718 -0.2523031 -0.033001833 -0.14093865 -0.38167593
-0.5198652 -0.28140178 -0.1453887 0.16629425 0.0280538 -0.08135086 0.069975786 0.1652846
-0.034686886 0.09930432 0.11120569 0.09340108 0.17903847 0.09453527 -0.11343422 0.0058453926
-0.044681557 0.00021163825 -0.14749233 -0.10099064 0.12711793 -0.07531222 -0.058655135 0.13763247
-0.09485858 -0.03252211 0.098713905 0.047668196 0.17075866 0.1493971 0.08129314 0.15426601
0.077575415 0.028805394 -0.18114148 -0.07015567 0.12823668 0.08759119 -0.002331843 0.044661853
-0.09350006 -0.16550334 -0.18734223 -0.19707839 -0.01090994 -0.23764637 -0.33210996 -0.11170482
-0.21525091 0.0070311567 -0.10877967 -0.2668102 -0.042682555 -0.038746137 -0.26008502 -0.151965
-0.15192589 -0.14170535 -0.10837999 -0.13270167 -0.10034463 0.026095519 -0.09713914 -0.02546938
0.22908418 0.15703821 0.31403637 -0.22417466 -0.040614113 0.10267455 -0.09047066 -0.009995562
0.40818837 -0.07313477 -0.16281234 0.10609908 0.083335176 0.08079273 0.19982916 0.2394084
-0.0907059 0.02623213 0.09998255 -0.22737087 -0.1287817 -0.19180371 -0.111435615 -0.05742067
-0.16732313 0.095109284 0.12133602 0.08409417 -0.077846564 0.15172966 0.42201006 0.3856632
0.28300285 0.07662076 0.09599583 0.16418684 0.36609274 0.36430573 0.11816764 -0.08991302
-0.07971397 0.24276017 0.21935593 -0.053086888 -0.05673335 -0.0614184 -0.015237273 -0.09613232
-0.104050055 0.166112 -0.06709598 -0.14384083 0.07880393 0.021427713 -0.15009733 0.006379865
-0.11583277 0.11782033 0.055803556 0.0014190238 -0.081336595 -0.14986522 0.0032789477 -0.20640104
-0.07327598 -0.050896566 0.07918194 0.041006587 0.019938588 -0.02020215 0.07760929 0.23754135
-0.035308734 0.0073821764 -0.13634187 0.108053185 0.045961548 0.028886661 0.01886146 -0.0048362655
00000000: a4c1 1cbe d74a d43b 0e39 813c 0858 673d
00000010: b685 7cbc fb92 c4bd 8fdc 4bbd d56e 85bd
00000020: 68de bbbd 3d22 9ebd 1c9e 4fbe 0cde 5a3c
00000030: 1409 273d d22d 2cbd a002 483d 8e29 ae3e
00000040: cf5d 1d3e 2bf9 ae3d 9bf5 b7bd 0073 29bc
00000050: 925d a3bc cc6b 06be 2362 a6bd 9b75 27be
00000060: 0c98 bdbe 7170 85bd 2f28 843e f8d7 0f3e
00000070: 02e5 863e bb77 4bbe c96a 193e 60b2 093e
00000080: c4df d33d fed1 77bd ff40 583e 636b e8bd
00000090: d5a0 b7bd 629a 8f3e 2289 223e 5ea9 663d
000000a0: 18c1 f23d 23a7 5e3e fac8 953d a9f7 9b3d
000000b0: 8e8c 25bd 6ff2 a73c a77b 0f3e 07cc 233e
000000c0: 8a51 9cbd 02dc 60be 0ee7 ca3c d3e6 1ebe
000000d0: 628f b93c 0742 9a3b 991f 1dbe 055c a2bd
000000e0: c5b3 053e 0b75 ee3d 6b79 8dbd 73fd 823d
000000f0: 02a8 47bd b618 1cbe 427f 6c3d d0b4 b63e
00000100: c1fd a53e 8ea0 993c 4c16 723e 6e8d 923e
00000110: 5bad 0c3e 3e1a 773c 66a6 a73b 6ba8 043d
00000120: 47ee 40be 5573 d7bd 7c9d 79bd 49bf 2c3d
00000130: 7508 f23c 5bc0 023d 47d6 5a3e ff66 3f3e
00000140: 8a64 0cbe 50e5 22bd 2d78 b23e 4e8c 93bc
00000150: 68b3 9fbb 6064 983d 6bc3 36be 788d 0b3d
00000160: beac a6bc a360 8abd 225f 973e ddce c93e
00000170: 5ada 683d 8975 123e a997 34be f6b6 fb3a
00000180: cca9 3c3b 11a4 50be c508 c8bd 5e55 5f3d
00000190: adb8 cf3d 00b5 09be a80b a03d c086 58bd
000001a0: ecf8 023e 8fef 9abd ac1f a6bd 6649 5bbe
000001b0: df2d 81be ee2c 07bd 3952 10be 076b c3be
000001c0: e315 05bf e513 90be c6e0 14be 0a49 2a3e
000001d0: 15d1 e53c 489b a6bd 774f 8f3d 5e40 293e
000001e0: d613 0ebd 1060 cb3d cfbf e33d 1149 bf3d
000001f0: dc55 373e b59b c13d 3350 e8bd b58a bf3b
00000200: 0204 37bd 36eb 5d39 3b08 17be 2ed4 cebd
00000210: 342b 023e 4b3d 9abd 5e40 70bd 87ef 0c3e
00000220: 3745 c2bd e735 05bd 842a ca3d ba3f 433d
00000230: 5cdb 2e3e 8efb 183e 057d a63d e9f7 1d3e
00000240: dcdf 9e3d 4af9 eb3c 277d 39be c7ad 8fbd
00000250: 7a50 033e 0363 b33d d5d1 18bb 59ef 363d
00000260: f67c bfbd b579 29be a4d6 3fbe ebce 49be
00000270: 9bbf 32bc 9259 73be 510a aabe 7fc5 e4bd
00000280: bc6a 5cbe 9e65 e63b e0c7 debd 599b 88be
00000290: e7d3 2ebd 45b4 1ebd dd29 85be b79c 1bbe
000002a0: 7692 1bbe 351b 11be 54f6 ddbd f2e2 07be
000002b0: 7c81 cdbd 45c6 d53c e3f0 c6bd 29a5 d0bc
000002c0: 0b95 6a3e a0ce 203e 60c9 a03e 0b8e 65be
000002d0: fc5a 26bd 0947 d23d ae48 b9bd 6dc4 23bc
000002e0: 11fe d03e afc7 95bd 47b8 26be 794a d93d
000002f0: a2ab aa3d a976 a53d 04a0 4c3e 7a27 753e
00000300: 04c4 b9bd c4e4 d63c a7c3 cc3d e9d3 68be
00000310: 5adf 03be 3168 44be 5b38 e4bd f031 6bbd
00000320: c156 2bbe a8c8 c23d 057f f83d 9039 ac3d
00000330: 056e 9fbd 055f 1b3e b411 d83e a675 c53e
00000340: c0e5 903e 58eb 9c3d 7699 c43d 9820 283e
00000350: 8270 bb3e 4886 ba3e e001 f23d 5124 b8bd
00000360: 1441 a3bd 1f96 783e d79e 603e a371 59bd
00000370: 3b61 68bd dc91 7bbd c1a5 79bc 06e1 c4bd
00000380: 3218 d5bd 4419 2a3e 9e69 89bd 034b 13be
00000390: f463 a13d 2c89 af3c 1db3 19be 300e d13b
000003a0: bb39 edbd c94b f13d 4592 643d 8afe b93a
000003b0: cd93 a6bd 4576 19be 9de3 563b cb5a 53be
000003c0: b811 96bd eb78 50bd 242a a23d 86f6 273d
000003d0: 4056 a33c fb7e a5bc 9ff1 9e3d 0a3e 733e
000003e0: e49f 10bd 2fe6 f13b 349d 0bbe fd4a dd3d
000003f0: 2d42 3c3d b8a3 ec3c 5983 9a3c 8979 9ebb

StatefulPartitionedCall/sequential_11/conv2d_8/BiasAdd/ReadVariableOp:0 f4 [16]
0.17117772 -0.17103815 -0.02199893 -0.15623131 0.0077033592 -0.17975725 -0.07692907 -0.028578518
-0.07024722 0.32201302 0.0042918515 -0.023472192 0.067273095 -0.11727847 -0.19256566 0.18458582
00000000: 3649 2f3e a024 2fbe 1a37 b4bc 1afb 1fbe
00000010: 766c fc3b 4912 38be fd8c 9dbd 7f1d eabc
00000020: c6dd 8fbd e4de a43e a9a2 8c3b c148 c0bc
00000030: 7ac6 893d b22f f0bd ef2f 45be 1104 3d3e

StatefulPartitionedCall/sequential_11/conv2d_7/Conv2D/ReadVariableOp:0 f4 [8, 1, 5, 5]
-0.3072179 0.05173819 0.45270225 0.28519484 0.29354388 -0.66613996 -0.73150057 -0.69488275
-0.37885112 0.12374278 0.03192793 -0.12582482 -0.19437346 -0.39341846 -0.43408838 0.18214159
0.09046171 -0.13253514 -0.23593168 -0.1754501 0.07626126 0.2589623 0.36675963 0.30486906
0.046017613 0.107424594 0.11567981 0.21660817 0.2934361 -0.25398892 0.0051245163 -0.18996903
-0.2068216 0.27420676 -0.10523806 0.23151317 -0.30135682 -0.02082865 0.2058197 0.19599411
-0.15638366 -0.051297784 0.41033468 -0.24983262 -0.10146314 -0.09885515 0.053088617 -0.15253581
-0.109028496 -0.19235356 0.029839505 -0.29331762 -0.34753394 -0.4243216 0.31664482 -0.39020818
-0.12688844 -0.018465318 0.30902624 0.123885706 -0.017836168 0.29213914 0.43895778 0.4063211
0.22628787 -0.06755118 0.1426006 -0.25016412 -0.024423826 -0.2752811 0.09444236 -0.04675894
-0.008281623 -0.1473148 -0.16668548 0.24852356 -0.26562077 -0.20542489 -0.007416988 -0.11573377
0.33529225 -0.23370752 0.18657139 0.32129607 -0.32409084 0.16746747 0.20778154 0.01565202
0.48075822 0.3863406 0.1919333 0.08621473 -0.07532174 -0.25206247 -0.04865392 -0.192614
-0.44275004 -0.17818092 -0.12536587 -0.00541199 0.22964738 -0.0081686815 0.077399716 0.010409859
-0.085663594 -0.12753113 0.024257673 0.24264123 0.25651056 -0.24953899 -0.009801721 -0.1993713
-0.21896848 0.6603381 0.034212627 0.046367127 -0.352306 -0.5136128 0.09645374 0.36728987
0.4790257 -0.04343066 -0.42893884 -0.2579631 0.3232472 0.15952632 0.06077404 0.2938331
-0.14958526 0.17675875 0.21253134 -0.03270452 -0.12019655 0.32808596 -0.2253213 -0.054412283
0.14990619 0.038924288 0.2933706 -0.05712923 0.14556961 0.16274594 0.089865625 -0.09118921
0.058174733 0.16129069 -0.02128659 -0.22092967 -0.1258785 -0.06533749 -0.26716417 0.20969215
0.2950692 -0.20211162 -0.25186875 -0.18963227 -0.02312969 0.32305163 -0.33534157 -0.07409676
0.23639998 -0.06070192 0.12946962 -0.6325036 -0.23212332 0.19323426 0.08772579 -0.18530826
-0.47738126 0.23403573 0.29916927 0.081393376 -0.1548284 -0.12747529 0.13533697 0.09272665
-0.13358942 0.034554068 0.018343901 0.008500107 0.41638124 -0.36166602 -0.19355601 0.066731475
0.0054465006 -0.19514835 -0.21825993 0.14871015 0.23689649 0.21698348 -0.17896143 -0.18065995
0.37327585 -0.014656543 0.029050192 0.03195513 0.30921623 -0.2656248 -0.5406411 -0.096565396
00000000: aa4b 9dbe 6deb 533d 97c8 e73e 0f05 923e
00000010: 624b 963e 2688 2abf 9f43 3bbf d6e3 31bf
00000020: c6f8 c1be db6c fd3d dcc6 023d 39d8 00be
00000030: d609 47be 256e c9be d540 debe 5383 3a3e
00000040: fd43 b93d 4bb7 07be 1398 71be 31a9 33be
00000050: dd2e 9c3d b596 843e ebc7 bb3e cc17 9c3e
00000060: f77c 3c3d 6d01 dc3d 89e9 ec3d 88ce 5d3e
00000070: 423d 963e d60a 82be 8feb a73b 3e87 42be
00000080: 0bc9 53be d464 8c3e 0d87 d7bd ca11 6d3e
00000090: 714b 9abe d8a0 aabc 66c2 523e aeb2 483e
000000a0: 0a23 20be a01d 52bd 6317 d23e 1fd4 7fbe
000000b0: e8cb cfbd 9274 cabd 7373 593d 5932 1cbe
000000c0: 554a dfbd 55f8 44be fa71 f43c ba2d 96be
000000d0: f8ef b1be ae40 d9be 451f a23e 5ec9 c7be
000000e0: 0bef 01be 9444 97bc b038 9e3e cab7 fd3d
000000f0: 281d 92bc 4393 953e 13bf e03e 5209 d03e
00000100: 02b8 673e 4658 8abd e405 123e 8315 80be
00000110: 7a14 c8bc a5f1 8cbe ff6a c13d 4d86 3fbd
00000120: a5af 07bc b1d9 16be 99af 2abe f67c 7e3e
00000130: 72ff 87be e75a 52be 340a f3bb d405 edbd
00000140: 6dab ab3e 0651 6fbe 920c 3f3e eb80 a43e
00000150: 3cef a5be 987c 2b3e afc4 543e aa38 803c
00000160: f125 f63e 6fce c53e 2a8a 443e 5991 b03d
00000170: 4942 9abd 550e 81be 5549 47bd 9b3c 45be
00000180: 22b0 e2be 0f75 36be e95f 00be 1057 b1bb
00000190: af28 6b3e efd5 05bc be83 9e3d 1d8e 2a3c
000001a0: 6570 afbd 8597 02be 07b8 c63c f176 783e
000001b0: 5a55 833e 2687 7fbe 6697 20bc fd27 4cbe
000001c0: 4639 60be eb0b 293f 8a22 0c3d 75eb 3d3d
000001d0: 7461 b4be 217c 03bf 8a89 c53d 6b0d bc3e
000001e0: db42 f53e 59e4 31bd df9d dbbe bd13 84be
000001f0: a880 a53e de5a 233e 33ee 783d 4b71 963e
00000200: e12c 19be 3f00 353e d1a1 593e 2df5 05bd
00000210: 9c29 f6bd e2fa a73e a0ba 66be 6adf 5ebd
00000220: 0281 193e 136f 1f3d ac34 963e 5700 6abd
00000230: 3310 153e dfa6 263e 780b b83d 69c1 babd
00000240: a148 6e3d 6329 253e 3761 aebc 633b 62be
00000250: 4be6 00be a9cf 85bd bec9 88be 8ab9 563e
00000260: 4f13 973e 59f6 4ebe f1f4 80be f62e 42be
00000270: 7a7a bdbc 0667 a53e e4b1 abbe 0bc0 97bd
00000280: d612 723e 94a2 78bd af93 043e c2eb 21bf
00000290: bcb1 6dbe 34df 453e 94a9 b33d 73c1 3dbe
000002a0: 516b f4be 10a7 6f3e b72c 993e 92b1 a63d
000002b0: 568b 1ebe e288 02be c695 0a3e 78e7 bd3d
000002c0: aacb 08be 9188 0d3d f345 963c 0844 0b3c
000002d0: ec2f d53e 4a2c b9be 8c33 46be 83aa 883d
000002e0: 8f78 b23b f8d4 47be 887f 5fbe 7947 183e
000002f0: fe94 723e eb30 5e3e aa41 37be ecfe 38be
00000300: 031e bf3e ff21 70bc abfa ed3c 62e3 023d
00000310: 9751 9e3e f9ff 87be 7567 0abf 14c4 c5bd

StatefulPartitionedCall/sequential_11/conv2d_7/BiasAdd/ReadVariableOp:0 f4 [8]
0.06813031 -0.0013455017 -0.0669664 -0.12634686 -0.16390468 -0.18564345 -0.027813377 0.003453179
00000000: e787 8b3d 8c5b b0ba ae25 89bd 1261 01be
00000010: a1d6 27be 5119 3ebe e1d8 e3bc bb4e 623b

StatefulPartitionedCall/sequential_11/batch_normalization_11/batchnorm/sub:0 f4 [256]
-1.4907687 -0.962468 -0.6406014 -0.5014206 -0.937538 -0.29265308 -0.7043669 -0.35917336
-0.5534895 -1.198622 -1.4237252 -0.33262986 -1.0215092 -0.7891694 -0.31771466 -1.6123486
-0.7890457 -0.8459121 -0.106359065 -0.6574583 -0.25152266 -0.7190908 -0.7410915 -0.84102756
-0.8137785 -1.2434957 -0.89243203 -0.6393941 -0.60306257 -1.1965474 -0.83108157 -1.9486543
-0.5337664 -0.6003482 -0.39862615 -2.017928 -0.59029555 -0.52835 -0.98337495 -1.3194702
-0.89432096 -2.0876613 -1.376553 -1.1520565 -0.4567239 -0.99601865 -0.5492638 -1.3481627
-0.40646395 -0.45282808 -0.45827246 -1.814746 -0.1457662 -1.3495145 -1.1555642 -0.3611655
-0.34931535 -1.8177497 -0.85790986 -1.2318449 -0.24266729 -0.46586478 -0.61629534 -0.65025586
-0.6443379 -0.84018785 -1.1289451 0.082905054 -1.1191263 -1.3118551 -0.68118155 -0.72633487
-0.12163529 -1.2693573 -1.608685 -0.38607264 -0.66246676 -0.43563744 -0.77518606 -1.4223882
-1.0432528 -0.31444937 -0.47180057 -0.08803654 -0.7383652 -1.1694127 -0.681547 -1.3523314
0.04421583 -1.5055498 -0.8141191 -0.48132992 -0.6531818 -1.0180742 -0.17780566 -1.9941655
-1.0180906 -0.41339865 -0.19558498 -0.6521796 -0.31132075 -1.6197217 -1.0712438 -1.0391899
-0.42440122 -1.965683 -1.2908356 -0.50288314 -0.4925647 -0.98388094 -0.4914632 -1.6341803
-0.37860888 -0.47195697 -0.21238007 -1.0784802 -0.23642145 -1.2869487 -1.7308325 -0.45100284
-0.56075794 -1.3124497 -0.97185636 -0.7080941 -0.8842426 -0.748773 -0.34456176 -1.4155694
-1.0297813 -0.9663408 -1.0430446 0.4427182 -1.1927657 -1.2718008 -0.12147227 -0.5729358
-0.44220582 -1.4376664 -1.4860127 -0.04144016 -0.7241051 -0.56278014 -0.82420635 -1.8145103
-0.5909741 -0.21981886 -0.7627916 -0.69643825 -0.66566974 -1.5021001 -1.0697438 -0.4492209
-0.20342657 -1.3219407 -1.4283744 -0.33189622 -0.40801692 -0.44405922 -1.1360934 -2.2471204
-0.83071697 -0.5406865 -0.41038105 -0.9210291 -0.40969342 -1.1546804 -0.91537935 -0.97496146
-0.46743196 -1.9160776 -1.241487 -0.7563009 -0.7691312 -0.7040968 0.029700458 -1.8488257
-0.47366068 0.10219005 -0.84918094 -0.69996786 0.05468774 -1.7076889 -1.1154804 -0.5388794
-0.39959973 -2.1918194 -0.44401363 -0.56610143 -0.9644135 -0.74475616 -0.679407 -0.66573405
-0.8137437 -1.0323116 -1.1289821 -0.21638212 -1.0072309 -1.7243779 -0.37885034 -0.95081586
-0.6806369 -1.7473733 -1.4171354 -0.94963706 -0.51888585 -0.56216466 -0.5421593 -1.684004
-1.498508 -1.0438713 -0.098484665 -0.15959437 -0.42240816 -1.6852227 -0.8338115 -0.4157058
-0.20768827 -1.5082523 -1.8352884 -0.45128018 -0.66804314 -1.4776429 -0.91522825 -2.313635
-1.112624 -0.3587669 -0.42054665 -0.28502256 -0.23087797 -0.64244854 -1.4920062 -0.61221373
-0.9049244 -1.8211823 -1.2012155 -0.26645958 -0.35399395 -1.0227363 -1.8820044 -1.8732234
-0.77188593 0.4018053 -0.6848667 -0.185422 -0.31683075 -0.8987998 -0.8891683 0.10196468
-0.52745134 -2.1550803 -0.5592922 -0.23284793 -1.7797571 -0.07107827 -0.8892365 -1.1518797
00000000: 82d1 bebf 4e64 76bf 74fe 23bf 1a5d 00bf
00000010: 7e02 70bf a0d6 95be 6451 34bf 92e5 b7be
00000020: 7db1 0dbf 726c 99bf a13c b6bf 764e aabe
00000030: d0c0 82bf 0107 4abf 7fab a2be 7061 cebf
00000040: e6fe 49bf b28d 58bf c8d2 d9bd 304f 28bf
00000050: 94c7 80be 5616 38bf 2cb8 3dbf 954d 57bf
00000060: ca53 50bf de2a 9fbf 6d76 64bf 55af 23bf
00000070: 4f62 1abf 7728 99bf c3c1 54bf 816d f9bf
00000080: eaa4 08bf 6bb0 19bf ba18 ccbe bb25 01c0
00000090: 9c1d 17bf f241 07bf 76be 7bbf 66e4 a8bf
000000a0: 38f2 64bf 3e9c 05c0 e432 b0bf 9676 93bf
000000b0: b7d7 e9be 14fb 7ebf 8d9c 0cbf 9890 acbf
000000c0: 0b1c d0be 15d9 e7be b0a2 eabe 9949 e8bf
000000d0: bc43 15be e4bc acbf 87e9 93bf afea b8be
000000e0: 76d9 b2be 06ac e8bf fb9f 5bbf 18ad 9dbf
000000f0: c67d 78be d485 eebe 88c5 1dbf 2b77 26bf
00000100: 54f3 24bf 8d16 57bf 4681 90bf 20ca a93d
00000110: 883f 8fbf deea a7bf ea61 2ebf 15f1 39bf
00000120: ec1b f9bd 4d7a a2bf 64e9 cdbf 50ab c5be
00000130: 6c97 29bf df0b dfbe 9872 46bf d110 b6bf
00000140: 4f89 85bf 82ff a0be d88f f1be 804c b4bd
00000150: 8005 3dbf 51af 95bf dd79 2ebf 3219 adbf
00000160: a81b 353d dbb5 c0bf 1c6a 50bf e070 f6be
00000170: ec36 27bf 4150 82bf b012 36be d140 ffbf
00000180: cb50 82bf fda8 d3be 6e47 48be 3ef5 26bf
00000190: 6f65 9fbe 0a53 cfbf 841e 89bf 2d04 85bf
000001a0: 1e4b d9be 809b fbbf 1a3a a5bf f3bc 00bf
000001b0: 7131 fcbe 9fdf 7bbf 11a1 fbbe d22c d1bf
000001c0: 06d9 c1be 58a4 f1be 297a 59be a40b 8abf
000001d0: 7718 72be bcba a4bf eb8b ddbf d8e9 e6be
000001e0: d58d 0fbf 5afe a7bf 94cb 78bf a845 35bf
000001f0: b95d 62bf 96af 3fbf 666a b0be 6131 b5bf
00000200: e0cf 83bf 1c62 77bf 7c82 85bf f6ab e23e
00000210: 8cac 98bf 5eca a2bf 74c6 f8bd ecab 12bf
00000220: cd68 e2be 7405 b8bf aa35 bebf 28bd 29bd
00000230: f45e 39bf 5c12 10bf 30ff 52bf e041 e8bf
00000240: 144a 17bf 3218 61be 4f46 43bf c749 32bf
00000250: 5569 2abf d144 c0bf 5ded 88bf 4800 e6be
00000260: 0e4f 50be 5a35 a9bf f9d4 b6bf 4dee a9be
00000270: 98e7 d0be bb5b e3be 826b 91bf d2d0 0fc0
00000280: dea9 54bf 6e6a 0abf 771d d2be 90c8 6bbf
00000290: 56c3 d1be 91cc 93bf 4d56 6abf 1397 79bf
000002a0: 3e53 efbe 0842 f5bf 0ce9 9ebf f09c 41bf
000002b0: c8e5 44bf b03f 34bf 604e f33c 52a6 ecbf
000002c0: a783 f2be 0449 d13d ec63 59bf 1831 33bf
000002d0: 4000 603d 8d95 dabf 10c8 8ebf 00f4 09bf
000002e0: 5698 ccbe c546 0cc0 c155 e3be 06ec 10bf
000002f0: cee3 76bf 57a8 3ebf 9eed 2dbf 8c6d 2abf
00000300: 8251 50bf c922 84bf 7c82 90bf 4693 5dbe
00000310: f1ec 80bf 6ab8 dcbf acf8 c1be ab68 73bf
00000320: 383e 2ebf eea9 dfbf b164 b5bf 6a1b 73bf
00000330: b4d5 04bf 06ea 0fbf f4ca 0abf 718d d7bf
00000340: 1ccf bfbf 939d 85bf 54b2 c9bd b56c 23be
00000350: e245 d8be 61b5 d7bf ac74 55bf 64d7 d4be
00000360: 3cac 54be 690e c1bf bbea eabf 320e e7be
00000370: e004 2bbf 6723 bdbf 664c 6abf 9912 14c0
00000380: 776a 8ebf 4cb0 b7be e451 d7be 7aee 91be
00000390: 466b 6cbe 8277 24bf 0ffa bebf 0aba 1cbf
000003a0: 20a9 67bf 801c e9bf 6ec1 99bf 646d 88be
000003b0: b23e b5be 06e9 82bf 85e5 f0bf c9c5 efbf
000003c0: 519a 45bf 6db9 cd3e 6d53 2fbf 44df 3dbe
000003d0: a437 a2be be17 66bf 89a0 63bf dcd2 d03d
000003e0: 0d07 07bf d6ec 09c0 c62d 0fbf b06f 6ebe
000003f0: 15cf e3bf 7c91 91bd 01a5 63bf cb70 93bf

StatefulPartitionedCall/sequential_11/batch_normalization_11/batchnorm/mul:0 f4 [256]
1.8556747 1.9119492 2.4818983 3.263708 2.1361985 0.8309081 1.7453933 1.361237
1.1404705 1.6343406 1.194017 2.9888208 2.2121572 1.5259848 3.1570423 1.3854378
1.0128784 1.2384961 2.8995924 1.2420341 1.4829371 1.0764909 1.2684343 0.8232886
1.2315936 1.2192317 0.94334275 2.0646002 3.0916622 1.6404567 1.9480451 1.4399304
0.87127095 0.7405579 3.1567044 1.125776 1.3260094 1.22722 1.1938851 1.306635
1.6172763 1.5213821 1.4382676 1.3710566 2.0417585 1.0506753 1.7355145 1.2617576
1.6218991 0.61722517 4.0809226 1.1588122 2.796042 2.1028075 1.4855942 1.3681065
2.014588 1.5620809 2.1270185 1.107928 2.234355 1.8346974 3.0307772 2.0407217
1.1196446 2.1563072 2.506443 4.9366827 1.5347016 1.2304815 1.7108397 1.1970803
1.0933118 1.3903514 1.243984 1.8105252 3.3507097 1.8891321 2.8085575 0.7616165
0.76281536 1.873533 2.4793124 2.1639307 1.3591766 0.949153 1.2691281 0.84838253
1.258245 1.3433329 0.80296147 1.7245364 2.1063826 1.2600937 1.3861297 1.0774298
1.0406134 1.9630828 2.201486 0.9075099 1.8212155 1.3957524 1.0879856 0.84948516
1.8411275 1.2461126 1.2655421 2.3396814 1.7371162 0.81748146 1.3178513 1.1952435
1.8366446 1.3226589 3.082958 1.338189 2.956182 1.446998 1.8514744 1.1659138
1.9673834 1.2233201 1.7681502 1.3688203 1.738861 1.4964864 1.6361277 1.7810769
1.345772 2.362507 3.292081 3.178251 1.437106 1.1146309 1.2210096 1.1290826
1.0140194 1.4811292 1.0502905 1.2335892 3.3180544 1.981281 1.4427949 1.0143218
0.87949604 1.7091453 2.829431 2.792241 1.0891019 1.1324811 1.2421116 0.72875214
1.0033152 1.0042489 1.0750996 1.7400037 1.5192405 0.82356465 1.3863564 1.2228466
0.7701271 1.7520123 2.504994 1.4737209 1.2066917 0.78037983 0.9194769 0.99244183
1.8921084 1.2103746 1.0364914 2.1958869 1.6812677 0.9558269 0.9948179 1.187959
1.4558156 1.324443 2.1290646 1.4108251 3.0307846 1.8712915 1.5010387 1.4003581
2.4319627 1.4978544 1.7341043 1.5683686 1.4538077 1.1123408 1.2367527 1.674337
1.075577 1.9214282 2.776972 2.5724137 1.1662556 1.191468 1.2281988 1.382095
1.0131496 1.6427069 1.2950488 1.4338467 3.5465965 2.0646172 1.1438042 1.0315224
0.8844121 1.9200711 2.0426147 1.840838 0.8146132 1.1480199 1.7989296 0.9242156
0.65489024 1.2031446 1.182497 1.5338215 2.3698244 1.2326962 1.4346424 1.0436841
0.6537392 2.8130093 2.7859945 1.8155503 1.4034387 0.9988127 1.9771222 0.98330194
1.2103231 1.4738724 1.2895024 3.032192 1.1269662 0.9699932 1.6964686 1.5175084
1.6641835 2.88091 2.270755 1.8023617 2.412552 2.0945122 1.6309944 0.86777604
1.8715587 1.9327044 1.7420913 2.5750592 1.6216493 1.4217345 1.2545947 2.269579
00000000: c086 ed3f c0ba f43f 6cd7 1e40 98e0 5040
00000010: 7ab7 0840 65b6 543f 0c69 df3f 043d ae3f
00000020: f0fa 913f 1332 d13f 8dd5 983f d748 3f40
00000030: fc93 0d40 7853 c33f fb0c 4a40 0756 b13f
00000040: 00a6 813f 0a87 9e3f ec92 3940 f9fa 9e3f
00000050: e2d0 bd3f 74ca 893f 0e5c a23f 0bc3 523f
00000060: dca4 9d3f c90f 9c3f e97e 713f 6922 0440
00000070: cbdd 4540 7cfa d13f 8b59 f93f a44f b83f
00000080: 9d0b 5f3f 3495 3d3f 7207 4a40 6e19 903f
00000090: adba a93f 8c15 9d3f 3ad1 983f d13f a73f
000000a0: e902 cf3f a6bc c23f 2719 b83f c87e af3f
000000b0: 2cac 0240 877c 863f 5725 de3f 4681 a13f
000000c0: 649a cf3f 7802 1e3f eb96 8240 f553 943f
000000d0: 5af2 3240 6694 0640 f327 be3f 1d1e af3f
000000e0: 03ef 0040 44f2 c73f 1221 0840 96d0 8d3f
000000f0: acff 0e40 5dd7 ea3f 41f8 4140 2f9b 0240
00000100: 8450 8f3f f000 0a40 9069 2040 4ef9 9d40
00000110: 1a71 c43f 6b80 9d3f ccfc da3f ed39 993f
00000120: a4f1 8b3f 09f7 b13f de3a 9f3f 4abf e73f
00000130: 0772 5640 15cf f13f 68bf 3340 4df9 423f
00000140: de47 433f eecf ef3f 0ead 1e40 d77d 0a40
00000150: 80f9 ad3f b1fb 723f ca72 a23f 992f 593f
00000160: 2c0e a13f 55f2 ab3f e28e 4d3f 9cbd dc3f
00000170: f9ce 0640 c04a a13f b36c b13f 38e9 893f
00000180: d232 853f 4c46 fb3f 26e5 0c40 9252 683f
00000190: 971d e93f 04a8 b23f 1d43 8b3f dc77 593f
000001a0: 11aa eb3f 9e80 9f3f 49fd a13f 57bd 1540
000001b0: d359 de3f 7746 513f 5aaf a83f bdfd 983f
000001c0: 2c17 eb3f e34c a93f 2f4f 4540 c749 ab3f
000001d0: 1632 3d40 3b37 b93f 1dfd ec3f aa3c 953f
000001e0: 38d3 fb3f c195 9c3f bf52 e23f 8135 af3f
000001f0: ff92 de3f de8c bf3f a26c d13f 54fa e33f
00000200: 4242 ac3f 5133 1740 75b1 5240 7768 4b40
00000210: 17f3 b73f 3aac 8e3f 0b4a 9c3f c785 903f
00000220: 63cb 813f a495 bd3f eb6f 863f 40e6 9d3f
00000230: 015b 5440 9e9a fd3f 81ad b83f 4cd5 813f
00000240: a726 613f 46c5 da3f 6615 3540 14b4 3240
00000250: b167 8b3f 24f5 903f 83fd 9e3f 808f 3a3f
00000260: a26c 803f 3a8b 803f dd9c 893f 71b8 de3f
00000270: 7976 c23f 22d5 523f 2074 b13f 3d86 9c3f
00000280: 0d27 453f f041 e03f d251 2040 e3a2 bc3f
00000290: e074 9a3f f9c6 473f d762 6b3f ab10 7e3f
000002a0: 9c30 f23f 8eed 9a3f c0ab 843f 6989 0c40
000002b0: c833 d73f 12b1 743f 63ac 7e3f 0a0f 983f
000002c0: 2a58 ba3f 5987 a93f 9842 0840 eb95 b43f
000002d0: 60f8 4140 7b86 ef3f 0922 c03f ef3e b33f
000002e0: 47a5 1b40 b1b9 bf3f 21f7 dd3f 4dc0 c83f
000002f0: 5f16 ba3f 2f61 8e3f ea4d 9e3f ad50 d63f
00000300: 82ac 893f 5cf1 f53f e9b9 3140 6da2 2440
00000310: dd47 953f 0682 983f 9e35 9d3f 7de8 b03f
00000320: e3ae 813f 3844 d23f 29c4 a53f 4a88 b73f
00000330: 70fb 6240 b022 0440 2d68 923f ed08 843f
00000340: d568 623f e4c4 f53f 33ba 0240 94a0 eb3f
00000350: 7e8a 503f 51f2 923f 5343 e63f 6599 6c3f
00000360: e3a6 273f a400 9a3f 105c 973f 4354 c43f
00000370: 34ab 1740 fdc8 9d3f 5da2 b73f 7197 853f
00000380: 745b 273f 5808 3440 bc4d 3240 f463 e83f
00000390: e1a3 b33f 30b2 7f3f 5712 fd3f adb9 7b3f
000003a0: deeb 9a3f daa7 bc3f 6a0e a53f 6f0f 4240
000003b0: 6e40 903f 7951 783f e225 d93f b73d c23f
000003c0: f703 d53f d460 3840 0d54 1140 cab3 e63f
000003d0: 4167 1a40 7d0c 0640 6dc4 d03f 9226 5e3f
000003e0: 3c8f ef3f dc62 f73f d9fc de3f c5cd 2440
000003f0: 3492 cf3f 65fb b53f 8f96 a03f c840 1140
